model.tflite (tflite, 100212 bytes, 96 tensors)

model_20/model_9/model_8/dense_23/BiasAdd/ReadVariableOp/resource f4 [2]
-1.2491874 -2.6829689
00000000: 5fe5 9fbf c3b5 2bc0

model_20/model_9/model_8/dense_22/BiasAdd/ReadVariableOp/resource f4 [24]
0.7428128 0.7751791 1.2440878 0.37128666 1.1458288 1.3036423 0.9931476 1.0821968
1.0561507 0.95628846 0.8328429 1.119756 1.2097143 1.037208 1.0749768 1.0980599
0.8414996 0.92111313 1.2484308 0.7150601 -0.061973523 -0.059876006 0.8401191 1.0032722
00000000: fb28 3e3f 2372 463f 453e 9f3f 4919 be3e
00000010: 85aa 923f c0dd a63f ec3e 7e3f 6d85 8a3f
00000020: f22f 873f 52cf 743f 3135 553f 2a54 8f3f
00000030: ebd7 9a3f 3bc3 843f d798 893f 3a8d 8c3f
00000040: 856c 573f 12ce 6b3f 95cc 9f3f 2e0e 373f
00000050: f3d7 7dbd 8b40 75bd 0c12 573f 396b 803f

model_20/model_9/model_8/dense_21/BiasAdd/ReadVariableOp/resource f4 [36]
0.29154062 0.4851199 0.6579975 0.2771051 0.21913469 0.65174735 0.18465027 0.5755527
0.32296342 0.03331945 0.33792698 0.29828387 0.1585775 0.32127953 0.297886 0.20613037
0.318269 0.2642719 0.019514905 0.29985338 0.6513385 0.23101413 0.21828553 0.23157889
0.24843797 0.20237125 0.29503095 0.11233642 0.17599516 0.14849387 0.33500066 -0.07598607
-0.1248979 0.45368493 0.47235236 0.22888339
00000000: d044 953e a361 f83e 8672 283f b8e0 8d3e
00000010: d864 603e ead8 263f f614 3d3e 6c57 133f
00000020: 765b a53e fa79 083d c404 ad3e aab8 983e
00000030: 2462 223e c07e a43e 8484 983e d713 533e
00000040: 28f4 a23e a54e 873e b9dd 9f3c 6286 993e
00000050: 1fbe 263f f88e 6c3e 3e86 5f3e 0423 6d3e
00000060: 8666 7e3e 693a 4f3e 4c0e 973e a310 e63d
00000070: 1338 343e c70e 183e 3585 ab3e 969e 9bbd
00000080: 78ca ffbd 6449 e83e 2bd8 f13e 6860 6a3e

model_20/model_9/model_7/dense_20/BiasAdd/ReadVariableOp/resource f4 [5]
0.09916784 0.012352677 0.0382051 0.086507015 0.023638193
00000000: 8218 cb3d e262 4a3c f37c 1c3d 972a b13d
00000010: e2a4 c13c

model_20/model_9/model_7/dense_19/BiasAdd/ReadVariableOp/resource f4 [24]
0.03688921 -0.005971931 0.0016497374 0.0166804 0.01868368 0.046741024 0.003430887 -0.009730975
0.05642562 0.043660965 0.06820978 0.038697436 0.038962588 0.08062926 0.00836569 -0.2539203
0.028221777 -0.13105361 0.0036194888 -0.22211915 -0.0027746717 -0.026092121 0.060790144 0.049691685
00000000: 2419 173d 30b0 c3bb 003c d83a 56a5 883c
00000010: 840e 993c 8473 3f3d bbd8 603b ab6e 1fbc
00000020: 8d1e 673d d7d5 323d 92b1 8b3d 3481 1e3d
00000030: 3c97 1f3d f420 a53d 3f10 093c d701 82be
00000040: 5b31 e73c eb32 06be f234 6d3b 3473 63be
00000050: 44d7 35bb 25bf d5bc 16ff 783d 8289 4b3d

model_20/model_9/model_7/dense_18/BiasAdd/ReadVariableOp/resource f4 [24]
0.00021109579 -0.025823113 0.011767356 0.067721665 0.034214627 0.051311903 0.011757154 0.03943308
0.027297005 0.030084368 0.03177361 0.021172822 0.009931491 0.018101417 0.008167955 -0.0052669137
0.08373025 -0.07165927 0.0082628345 0.013592361 0.04322949 0.0017894837 0.04311619 0.016874155
00000000: 9859 5d39 fe8a d3bc decb 403c a8b1 8a3d
00000010: a324 0c3d 6e2c 523d 14a1 403c 9584 213d
00000020: f89d df3c 7e73 f63c 0b25 023d a072 ad3c
00000030: b1b7 223c 6c49 943c e3d2 053c 1396 acbb
00000040: c47a ab3d 18c2 92bd d760 073c 7eb2 5e3c
00000050: 6811 313d 1c8d ea3a 9a9a 303d ab3b 8a3c

model_20/model_9/model_6/dense_17/BiasAdd/ReadVariableOp/resource f4 [5]
0.03555865 -0.016352523 -0.072098225 -0.056230046 -0.017276196
00000000: f2a5 113d baf5 85bc 3ca8 93bd 7a51 66bd
00000010: cf86 8dbc

model_20/model_9/model_6/dense_16/BiasAdd/ReadVariableOp/resource f4 [24]
0.04483974 0.04700556 0.025408527 -0.22438392 0.04027176 0.01809249 0.029492326 0.018335663
0.016525872 0.04164555 0.016944114 -0.049620807 -0.0012237291 0.037110604 0.05688324 0.011532336
0.06023587 0.013432877 0.056113876 0.030294295 -0.103531666 0.037661865 0.06669282 0.024691656
00000000: e0a9 373d e788 403d 8b25 d03c e6c4 65be
00000010: 00f4 243d b436 943c e499 f13c ac34 963c
00000020: 4461 873c 8694 2a3d 62ce 8a3c 303f 4bbd
00000030: 8965 a0ba 4a01 183d 66fe 683d 1ff2 3c3c
00000040: e3b9 763d 9215 5c3c aad7 653d be2b f83c
00000050: 6908 d4bd 5443 1a3d 3f96 883d 2846 ca3c

model_20/model_9/model_6/dense_15/BiasAdd/ReadVariableOp/resource f4 [24]
0.0054397085 0.0045649093 0.009947288 0.00685493 0.00914148 0.004202114 0.010500444 0.0025242602
0.004548029 -0.09043536 0.003806348 0.0014889468 0.003244714 -0.0041223126 0.013114153 0.02265147
0.0018481042 0.00069668517 0.007977469 0.010545486 0.010432506 0.017606843 0.0032524774 0.0057134666
00000000: 953f b23b 3c95 953b f3f9 223c 529f e03b
00000010: 25c6 153c e3b1 893b 0e0a 2c3c 0f6e 253b
00000020: a207 953b 2d36 b9bd ec73 793b c428 c33a
00000030: 45a5 543b 7714 87bb bfdc 563c 938f b93c
00000040: 163c f23a c0a1 363a eeb3 023c f9c6 2c3c
00000050: 1aed 2a3c 3a3c 903c 8427 553b 0838 bb3b

model_20/model_9/model_5/dense_14/BiasAdd/ReadVariableOp/resource f4 [5]
-0.03734614 -0.03346239 0.04002381 -0.027560912 0.034259956
00000000: 44f8 18bd dc0f 09bd 02f0 233d 6cc7 e1bc
00000010: 2b54 0c3d

model_20/model_9/model_5/dense_13/BiasAdd/ReadVariableOp/resource f4 [24]
0.030408934 0.045382753 0.030604843 0.044741217 0.024871694 0.07804446 0.0216582 0.062485635
0.079695135 -0.18969667 0.020296477 0.0544543 0.045211025 0.02840882 0.009652611 0.0429477
0.0731597 0.027394623 0.051356874 0.03100275 0.015763221 0.035387386 0.009230597 0.08163587
00000000: 281c f93c 44e3 393d 02b7 fa3c 9142 373d
00000010: b9bf cb3c c6d5 9f3d 8a6c b13c f0f0 7f3d
00000020: 3437 a33d d83f 42be cc44 a63c 790b 5f3d
00000030: 322f 393d 9db9 e83c fc25 1e3c ede9 2f3d
00000040: c1d4 953d b06a e03c 965b 523d 7bf9 fd3c
00000050: df21 813c 5df2 103d ee3b 173c b530 a73d

model_20/model_9/model_5/dense_12/BiasAdd/ReadVariableOp/resource f4 [24]
0.019253885 0.008516895 0.018950552 0.008862993 0.011155027 -0.0013588226 0.008544743 0.0044381544
-0.0019505164 0.01268875 0.009995624 0.001078069 0.002560275 0.0055990703 -0.058189675 0.0094529325
0.045266915 0.016135886 0.010024753 0.032534655 0.020928226 -0.008588957 0.0043022474 -0.0014221065
00000000: 53ba 9d3c 728a 0b3c 303e 9b3c 1636 113c
00000010: 93c3 363c 851a b2ba 40ff 0b3c f06d 913b
00000020: 78a8 ffba 7ae4 4f3c b0c4 233c fe4d 8d3a
00000030: 49ca 273b 6878 b73b 4c58 6ebd 79e0 1a3c
00000040: cd69 393d 682f 843c dd3e 243c 0f43 053d
00000050: ac71 ab3c b2b8 0cbc def9 8c3b fa65 baba

model_20/model_4/model_3/dense_9/BiasAdd/ReadVariableOp/resource f4 [36]
-0.13570948 0.39303827 0.3294848 0.5146099 0.4322819 0.195015 0.24271207 0.3290587
0.3854525 0.21840613 -0.06818374 0.3853084 0.31035745 0.36711007 -0.06329017 0.32999575
0.10344878 0.32218516 -0.427408 0.3287364 -0.16118278 0.38424146 0.2654303 0.40883544
0.43458194 0.36540267 0.2632493 0.1780478 0.07026731 0.22894499 0.4354783 0.1528749
0.31629133 0.2892461 0.22128184 0.27615023
00000000: 6df7 0abe 503c c93e 3bb2 a83e 79bd 033f
00000010: 0e54 dd3e 03b2 473e 8389 783e 627a a83e
00000020: 085a c53e dba5 5f3e eba3 8bbd 2547 c53e
00000030: 2ce7 9e3e daf5 bb3e 479e 81bd 34f5 a83e
00000040: f4dc d33d 74f5 a43e 39d5 dabe 2350 a83e
00000050: 190d 25be 4cbb c43e 7be6 873e e152 d13e
00000060: 8681 de3e 0f16 bb3e 9dc8 863e 2a52 363e
00000070: 4fe8 8f3d 8e70 6a3e 03f7 de3e 3d8b 1c3e
00000080: f0f0 a13e 1118 943e b597 623e 9063 8d3e

model_20/model_4/model_3/dense_11/BiasAdd/ReadVariableOp/resource f4 [2]
1.6536677 -2.2718978
00000000: 62ab d33f c666 11c0

model_20/model_4/model_3/dense_10/BiasAdd/ReadVariableOp/resource f4 [24]
1.6112831 1.1768073 0.9995679 1.3514361 1.0358443 -0.11245085 1.1031404 1.1149316
1.1372939 -0.056803856 1.1272789 1.1331899 1.5976844 1.1808859 1.4268668 1.4292256
1.1138573 1.072114 0.70405453 1.2861772 0.95493007 0.9457393 1.0455021 1.0797571
00000000: 863e ce3f 9fa1 963f afe3 7f3f dcfb ac3f
00000010: 8c96 843f a24c e6bd b433 8d3f 14b6 8e3f
00000020: d992 913f 29ab 68bd ad4a 903f 5e0c 913f
00000030: ec80 cc3f 4527 973f 92a3 b63f ddf0 b63f
00000040: e092 8e3f 083b 893f eb3c 343f 74a1 a43f
00000050: 4c76 743f f91b 723f 03d3 853f 7b35 8a3f

model_20/model_4/model_2/dense_8/BiasAdd/ReadVariableOp/resource f4 [5]
0.072734736 -0.052777577 0.048465736 0.024550835 0.00357608
00000000: f3f5 943d 4d2d 58bd 0284 463d d51e c93c
00000010: ab5c 6a3b

model_20/model_4/model_2/dense_7/BiasAdd/ReadVariableOp/resource f4 [24]
0.11687664 0.00034355576 -0.10778339 0.10899772 0.10578184 0.12454722 0.1210063 0.0792183
0.09846695 0.079998225 0.05634736 -0.17679003 0.08072738 0.18952662 0.132639 0.072027646
0.027506733 0.11402788 0.13102797 0.15134135 0.06946415 -0.054774895 -0.40618786 0.10325303
00000000: 055d ef3d 461f b439 8abd dcbd 323a df3d
00000010: 26a4 d83d 9d12 ff3d 27d2 f73d 343d a23d
00000020: 0aa9 c93d 1cd6 a33d 7dcc 663d 7208 35be
00000030: 6654 a53d 4413 423e 85d2 073e 3b83 933d
00000040: cd55 e13c 7387 e93d 322c 063e 3af9 1a3e
00000050: 3843 8e3d a45b 60bd dbf7 cfbe 5376 d33d

model_20/model_4/model_2/dense_6/BiasAdd/ReadVariableOp/resource f4 [24]
-0.0012188398 0.03374288 0.038313534 0.05001847 0.010557027 0.059497006 0.034196682 -0.053663697
0.003996502 0.02827942 0.0060007395 0.009584291 0.013295394 0.01173818 -0.0026150853 0.043865316
0.05220589 0.0145601835 0.028672207 0.0008207809 0.02272672 0.009578583 0.084226936 0.005219446
00000000: 7ac1 9fba f935 0a3d a7ee 1c3d 2be0 4c3d
00000010: 61f7 2c3c 22b3 733d d211 0c3d 77ce 5bbd
00000020: 17f5 823b 3eaa e73c daa1 c43b 6e07 1d3c
00000030: edd4 593c 7f51 403c da61 2bbb 1eac 333d
00000040: d8d5 553d d68d 6e3c fae1 ea3c ac29 573a
00000050: 632d ba3c 7def 1c3c 2c7f ac3d e307 ab3b

model_20/model_4/model_1/dense_5/BiasAdd/ReadVariableOp/resource f4 [5]
0.029183703 0.023312435 0.0075430535 -0.040509045 -0.01327921
00000000: a912 ef3c b8f9 be3c b82b f73b d0ec 25bd
00000010: 0b91 59bc

model_20/model_4/model_1/dense_4/BiasAdd/ReadVariableOp/resource f4 [24]
0.032264687 0.03880722 0.046688303 0.03428961 0.016725902 0.027370017 0.04734564 0.016718078
0.023527218 0.04823672 0.041910358 0.011645254 -0.02955095 0.10849903 0.053144414 0.021552762
0.04022395 0.071492165 0.047020882 0.010215876 0.05808512 0.029630022 0.03193145 0.055135593
00000000: fa27 043d 52f4 1e3d 3c3c 3f3d 4373 0c3d
00000010: c204 893c 1637 e03c 80ed 413d 5af4 883c
00000020: 27bc c03c de93 453d 32aa 2b3d bccb 3e3c
00000030: d514 f2bc bd34 de3d f5ad 593d 6b8f b03c
00000040: dec1 243d 7c6a 923d f898 403d 7d60 273c
00000050: aaea 6d3d a9ba f23c 8dca 023d dcd5 613d

model_20/model_4/model_1/dense_3/BiasAdd/ReadVariableOp/resource f4 [24]
-0.00011655042 0.017189056 0.002778619 0.009221841 0.010702322 0.0009501402 -0.00010256341 0.00628453
-0.0012677751 0.008304556 -0.026179953 0.0049067307 0.0021772422 0.016293425 -0.13849072 0.01430983
0.005692766 0.008976791 0.0054058908 0.006217347 0.005357248 0.010151271 0.0043552895 -0.23249677
00000000: 886c f4b8 10d0 8c3c 7e19 363b 3417 173c
00000010: cb58 2f3c d412 793a 5017 d7b8 75ee cd3b
00000020: 792b a6ba d50f 083c 5777 d6bc a4c8 a03b
00000030: 10b0 0e3b ca79 853c 83d0 0dbe c773 6a3c
00000040: 628a ba3b 6413 133c e623 b13b e3ba cb3b
00000050: da8b af3b 8451 263c d1b6 8e3b a213 6ebe

model_20/model_4/model/dense_2/BiasAdd/ReadVariableOp/resource f4 [5]
0.0010773656 -0.032756723 -0.16530423 0.022577187 -0.050399728
00000000: 6436 8d3a ea2b 06bd 8345 29be cbf3 b83c
00000010: f26f 4ebd

model_20/model_4/model/dense_1/BiasAdd/ReadVariableOp/resource f4 [24]
0.03931267 0.032829992 0.050613232 0.042674296 0.056986954 0.111755915 0.051770497 0.05504361
0.19386481 0.108430706 0.05383934 0.08801496 0.07068155 0.042203907 0.09931751 0.053750146
0.050826676 0.040532753 0.024716325 0.17271735 0.037935745 0.019891288 0.0862226 0.049372636
00000000: 5206 213d be78 063d d24f 4f3d 3ecb 2e3d
00000010: 276b 693d 49e0 e43d 4d0d 543d 6975 613d
00000020: 7f84 463e eb10 de3d a486 5c3d 3041 b43d
00000030: 7dc1 903d 01de 2c3d fb66 cb3d 1d29 5c3d
00000040: a22f 503d ac05 263d e479 ca3c d1dc 303e
00000050: 8362 1b3d 0ef3 a23c 7995 b03d f63a 4a3d

model_20/model_4/model/dense/BiasAdd/ReadVariableOp/resource f4 [24]
0.0032023105 0.029725946 0.0071257115 0.011718507 0.021729844 0.0068780705 0.005530001 0.013616136
0.010905302 0.0012849049 0.0014530489 0.02493859 0.0073266495 0.006641635 0.017018588 0.004466988
0.0041067824 0.015452196 -0.0008026832 0.009786827 0.0010691659 0.017801866 0.015594426 -0.08030939
00000000: dbdd 513b d483 f33c cd7e e93b fbfe 3f3c
00000010: c902 b23c 7061 e13b 0335 b53b 3716 5f3c
00000020: 27ac 323c 416a a83a 3b74 be3a 044c cc3c
00000030: 6414 f03b 13a2 d93b 916a 8b3c d05f 923b
00000040: 3092 863b 352b 7d3c 286b 52ba ed58 203c
00000050: 4123 8c3a 38d5 913c c37f 7f3c 4079 a4bd

model_20/model_19/model_18/dense_47/BiasAdd/ReadVariableOp/resource f4 [2]
-0.8782286 -2.3392932
00000000: 97d3 60bf fbb6 15c0

model_20/model_19/model_18/dense_46/BiasAdd/ReadVariableOp/resource f4 [24]
1.4673401 1.1873937 1.4851044 1.3137318 1.6077522 1.2446768 1.1797146 1.4600456
1.2348738 1.2769493 1.2825809 0.6214475 1.5521344 0.8915745 1.3479868 1.5354909
1.4037459 1.781271 1.0891948 1.6462154 1.0964947 0.9609238 1.1676669 0.9801565
00000000: cdd1 bb3f 84fc 973f e717 be3f 5d28 a83f
00000010: d3ca cd3f 9251 9f3f e300 973f c6e2 ba3f
00000020: 5810 9e3f 1373 a33f 9c2b a43f 2f17 1f3f
00000030: 57ac c63f 3a3e 643f d58a ac3f f78a c43f
00000040: f2ad b33f b000 e43f bc6a 8b3f 30b7 d23f
00000050: f059 8c3f 1aff 753f 1c76 953f 89eb 7a3f

model_20/model_19/model_18/dense_45/BiasAdd/ReadVariableOp/resource f4 [36]
0.09558075 0.25519505 0.42501605 0.041394502 0.24133345 0.42093873 0.37277317 -0.66024476
0.2380825 -0.41853163 0.5424825 -0.016667109 0.6678359 0.2975323 0.41182318 -0.20718305
0.14527154 0.31593478 0.21638058 -0.00072604313 0.5492983 0.64850086 0.36719927 0.503223
0.3874016 0.08545533 0.2547878 0.33118907 -1.0094416 0.5254245 0.2258797 0.3728402
0.29317936 0.37101933 -0.13555431 0.43434504
00000000: d7bf c33d eda8 823e b49b d93e 488d 293d
00000010: 1e20 773e 4885 d73e 20dc be3e cd05 29bf
00000020: e6cb 733e c749 d6be 22e0 0a3f 7689 88bc
00000030: 4bf7 2a3f 2756 983e 7dda d23e cb27 54be
00000040: 10c2 143e 34c2 a13e df92 5d3e ee53 3eba
00000050: d09e 0c3f 2704 263f 8b01 bc3e 39d3 003f
00000060: 8159 c63e 3403 af3d 8c73 823e 9d91 a93e
00000070: 6235 81bf 3882 063f 024d 673e e9e4 be3e
00000080: 9b1b 963e 3ff6 bd3e c0ce 0abe 7962 de3e

model_20/model_19/model_17/dense_44/BiasAdd/ReadVariableOp/resource f4 [5]
-0.059693854 -0.067508645 -0.09104471 0.041657645 0.01920994
00000000: 8b81 74bd f941 8abd a675 babd 35a1 2a3d
00000010: 2a5e 9d3c

model_20/model_19/model_17/dense_43/BiasAdd/ReadVariableOp/resource f4 [24]
-0.12998037 0.0959194 0.02322672 0.10223982 0.1317754 0.025418643 0.059298404 0.049333077
0.11892454 0.05950513 0.0055155037 0.016922161 0.011572032 0.037176725 -0.16990007 0.08322603
0.03350594 0.057394564 0.049892113 0.06376678 0.08066036 0.058365114 0.055021513 0.06390356
00000000: 9319 05be 6471 c43d f645 be3c 1c63 d13d
00000010: 21f0 063e c23a d03c e2e2 723d 7b11 4a3d
00000020: b68e f33d a7bb 733d 66bb b43b 58a0 8a3c
00000030: 9f98 3d3c 9f46 183d 49fa 2dbe 6972 aa3d
00000040: 863d 093d 9016 6b3d ac5b 4c3d 2898 823d
00000050: 4231 a53d 4210 6f3d 3d5e 613d dfdf 823d

model_20/model_19/model_17/dense_42/BiasAdd/ReadVariableOp/resource f4 [24]
0.030653099 0.029412614 0.0071888263 0.014868443 0.005783051 0.003452088 0.020748328 0.0052621197
-0.009265928 0.001067903 0.059245706 0.014750509 0.014802614 0.0035114018 0.0031082986 0.033207186
0.0038704125 0.0039747893 0.008794172 0.0065531004 0.0074660666 0.0040265964 0.001986594 0.042606477
00000000: 351c fb3c b9f2 f03c 3f90 eb3b c59a 733c
00000010: bf7f bd3b 6d3c 623b 66f8 a93c dc6d ac3b
00000020: 1ed0 17bc e1f8 8b3a a0ab 723d 1eac 713c
00000030: aa86 723c 8c1f 663b 99b4 4b3b 4204 083d
00000040: bfa6 7d3b f33e 823b 6e15 103c 64bb d63b
00000050: e8a5 f43b 8af1 833b 8431 023b 2184 2e3d

model_20/model_19/model_16/dense_41/BiasAdd/ReadVariableOp/resource f4 [5]
-0.109660454 -0.005275087 -0.09834953 0.111606635 -0.09897582
00000000: a995 e0bd a3da acbb 7a6b c9bd 0592 e43d
00000010: d6b3 cabd

model_20/model_19/model_16/dense_40/BiasAdd/ReadVariableOp/resource f4 [24]
0.062553495 0.027689792 0.013471008 0.051727302 0.02014313 0.100038074 0.03778506 0.1213749
0.040983 0.068669476 0.050323185 0.061900854 0.13875557 0.011065263 0.03344665 0.074147545
0.0038597807 0.11661248 -0.12927325 0.053713486 -0.17684609 0.020634616 0.117704034 0.13615596
00000000: 0c1c 803d b4d5 e23c 81b5 5c3c 02e0 533d
00000010: 3503 a53c c3e0 cc3d 82c4 1a3d 6793 f83d
00000020: cadd 273d 95a2 8c3d af1f 4e3d c08b 7d3d
00000030: f115 0e3e 144b 353c 5bff 083d abda 973d
00000040: 60f4 7c3b 86d2 ee3d 3560 04be ac02 5c3d
00000050: 2417 35be ed09 a93c d00e f13d 786c 0b3e

model_20/model_19/model_16/dense_39/BiasAdd/ReadVariableOp/resource f4 [24]
0.000900262 0.0052579455 0.01003095 0.10520629 0.0009018521 0.0143428 0.0064242254 0.024891762
0.02591903 0.004958356 0.035264846 -0.11827981 -0.0010179777 0.017880926 0.01191324 0.010792502
0.01451781 0.00095393235 0.033858478 0.006873032 0.004733822 0.00393185 0.026072819 -0.08564241
00000000: 8fff 6b3a d84a ac3b db58 243c 6576 d73d
00000010: 456a 6c3a 10fe 6a3c 4f82 d23b cfe9 cb3c
00000020: 2554 d43c b479 a23b df71 103d af3c f2bd
00000030: aa6d 85ba 057b 923c c02f 433c 09d3 303c
00000040: 1cdc 6d3c 5111 7a3a 30af 0a3d 2c37 e13b
00000050: 2d1e 9b3b c0d6 803b aa96 d53c 4a65 afbd

model_20/model_19/model_15/dense_38/BiasAdd/ReadVariableOp/resource f4 [5]
-0.010169353 -0.019635215 0.05198851 0.030398462 0.014814369
00000000: 5c9d 26bc 08da a0bc e7f1 543d 3206 f93c
00000010: f8b7 723c

model_20/model_19/model_15/dense_37/BiasAdd/ReadVariableOp/resource f4 [24]
0.001087928 0.036366567 0.037727315 0.027639061 0.109188385 0.12966636 0.031732474 0.07119686
-0.14014187 0.096896246 0.05067252 0.008083812 -0.23528199 0.09234902 0.039711248 0.116506934
0.0065534534 0.050298546 0.039345462 0.025745144 0.0070640603 0.0029005997 -0.09574287 0.04146508
00000000: ce98 8e3a 1cf5 143d f587 1a3d 506b e23c
00000010: 299e df3d 42c7 043e e9f9 013d a9cf 913d
00000020: 5a81 0fbe 8a71 c63d fd8d 4f3d f771 043c
00000030: c3ed 70be 7c21 bd3d 43a8 223d 309b ee3d
00000040: 5abe d63b d905 4e3d b528 213d 7be7 d23c
00000050: a279 e73b fd17 3e3b d614 c4bd 4ad7 293d

model_20/model_19/model_15/dense_36/BiasAdd/ReadVariableOp/resource f4 [24]
0.009246324 0.0 0.020818133 -0.065763645 0.010882738 -0.07332436 0.006139242 0.014094815
-0.06524779 0.0019671342 0.035786703 0.04675003 -0.085926585 0.0061677387 0.0016836226 0.035418786
0.009226842 0.039239235 0.05087886 0.0010868463 0.13673267 0.0070325476 0.0091868155 0.014319463
00000000: e57d 173c 0000 0000 ca8a aa3c 17af 86bd
00000010: 834d 323c 152b 96bd b22b c93b f0ed 663c
00000020: a2a0 85bd 09eb 003b 1495 123d f67c 3f3d
00000030: 47fa afbd be1a ca3b 00ad dc3a 4a13 113d
00000040: 2e2c 173c 52b9 203d 5a66 503d 8374 8e3a
00000050: a603 0c3e 4971 e63b 4c84 163c 2e9c 6a3c

model_20/model_14/model_13/dense_35/BiasAdd/ReadVariableOp/resource f4 [2]
1.562864 -2.1020525
00000000: ed0b c83f 0788 06c0

model_20/model_14/model_13/dense_34/BiasAdd/ReadVariableOp/resource f4 [24]
1.3968024 1.403498 1.3524913 0.77998304 1.0509593 0.24892582 1.2324436 0.6495295
0.9005305 1.3380507 1.1492895 0.60187984 1.239508 1.2535694 1.1978533 1.2639654
1.1594822 0.004251043 1.2089616 1.4311988 1.3788527 1.2951187 1.2282643 0.81145406
00000000: 6cca b23f d3a5 b33f 6f1e ad3f f8ac 473f
00000010: d685 863f 69e6 7e3e b6c0 9d3f 9147 263f
00000020: 2b89 663f 3f45 ab3f eb1b 933f cc14 1a3f
00000030: 33a8 9e3f f674 a03f 4253 993f 9ec9 a13f
00000040: ea69 943f 554c 8b3b 41bf 9a3f 8631 b73f
00000050: 3f7e b03f 73c6 a53f c437 9d3f 74bb 4f3f

model_20/model_14/model_13/dense_33/BiasAdd/ReadVariableOp/resource f4 [36]
0.13733295 0.43766645 -0.09814324 -0.034880735 0.5131713 0.20305832 0.28465465 0.18937345
0.48779657 0.14788003 0.1843835 0.5128268 0.34164596 0.45589456 -0.078428395 0.2736932
0.40731183 -0.10513467 0.47074983 0.04112971 -1.2465549 0.35450366 0.6857284 0.44275126
0.70224255 0.1853354 0.27603924 0.4073989 0.4214539 0.73237866 0.26143646 0.35806698
0.06694183 0.63010347 0.31403726 0.6906077
00000000: 02a1 0c3e d115 e03e 53ff c8bd 1adf 0ebd
00000010: 325f 033f 85ee 4f3e 41be 913e 1deb 413e
00000020: 79c0 f93e dd6d 173e 07cf 3c3e 9e48 033f
00000030: 38ec ae3e 036b e93e 119f a0bd 8421 8c3e
00000040: 2d8b d03e d950 d7bd 1f06 f13e a077 283d
00000050: 1c8f 9fbf 8181 b53e e58b 2f3f 4bb0 e23e
00000060: 2bc6 333f 90c8 3d3e 0455 8d3e 9796 d03e
00000070: cec8 d73e 2b7d 3b3f 00db 853e 8e54 b73e
00000080: cc18 893d 764e 213f 7ec9 a03e abcb 303f

model_20/model_14/model_12/dense_32/BiasAdd/ReadVariableOp/resource f4 [5]
-0.09221094 -0.06822704 -0.046818085 0.05304372 -0.028876591
00000000: 17d9 bcbd 9eba 8bbd 52c4 3fbd 5f44 593d
00000010: 9a8e ecbc

model_20/model_14/model_12/dense_31/BiasAdd/ReadVariableOp/resource f4 [24]
0.1351528 0.06819952 0.14641815 -0.06715257 0.111944415 0.03777546 0.062056232 0.0583189
0.041879144 0.05756899 0.07048964 -0.17367628 0.11835964 0.07053908 0.106293 0.06611445
0.1558197 0.045855563 0.09172881 0.05736976 0.040669054 0.104529515 0.06574526 0.07022884
00000000: 7f65 0a3e 31ac 8b3d a4ee 153e 4987 89bd
00000010: 1d43 e53d 71ba 1a3d ad2e 7e3d cddf 6e3d
00000020: 7789 2b3d 76cd 6b3d df5c 903d 32d8 31be
00000030: 8a66 f23d cb76 903d 25b0 d93d 0367 873d
00000040: 338f 1f3e 0bd3 3b3d 50dc bb3d 8efc 6a3d
00000050: 9894 263d 9213 d63d 73a5 863d 23d4 8f3d

model_20/model_14/model_12/dense_30/BiasAdd/ReadVariableOp/resource f4 [24]
0.0023696222 0.001849249 -0.0010037358 0.002492994 0.02458591 -0.0027264622 0.00725697 0.002296875
0.0025526467 0.0023654816 0.007628557 0.027538095 -0.032421872 0.053378716 0.005558811 0.0075258873
-0.001063954 0.009572349 0.0075618406 0.0071364352 0.011816882 0.010044152 -0.0022900584 0.013621417
00000000: aa4b 1b3b 8062 f23a c98f 83ba 8061 233b
00000010: 6468 c93c 72ae 32bb e0cb ed3b 2b87 163b
00000020: 4e4a 273b 3206 1b3b f9f8 f93b 9297 e13c
00000030: cccc 04bd a4a3 5a3d b026 b63b b89b f63b
00000040: 5f74 8bba 57d5 1c3c 51c9 f73b c2d8 e93b
00000050: 989b 413c 3a90 243c ce14 16bb 5d2c 5f3c

model_20/model_14/model_11/dense_29/BiasAdd/ReadVariableOp/resource f4 [5]
0.024209142 -0.039317556 -0.007876527 -0.070968494 0.02418968
00000000: 4052 c63c 720b 21bd 8c0c 01bc ee57 91bd
00000010: 7029 c63c

model_20/model_14/model_11/dense_28/BiasAdd/ReadVariableOp/resource f4 [24]
-0.19858906 0.069665015 0.0511002 0.06628866 0.050667036 0.1319844 0.083173946 -0.048181135
0.05551501 0.0796565 0.10399647 0.13059437 0.0533742 0.06641893 0.08288359 0.08688711
0.04380516 0.10598746 0.05627762 0.073336124 0.05564119 0.12596627 0.07935918 0.06672473
00000000: ee5a 4bbe 88ac 8e3d 714e 513d 59c2 873d
00000010: 3d88 4f3d eb26 073e 1a57 aa3d 9559 45bd
00000020: b563 633d f222 a33d 1afc d43d 88ba 053e
00000030: e89e 5a3d a606 883d dfbe a93d def1 b13d
00000040: 0a6d 333d f40f d93d 5d83 663d 4031 963d
00000050: 04e8 633d 4dfd 003e 1187 a23d faa6 883d

model_20/model_14/model_11/dense_27/BiasAdd/ReadVariableOp/resource f4 [24]
0.06097475 0.037898295 0.0108826775 0.009303953 0.0022475948 0.04076196 0.0043821223 0.0013139357
0.018505495 0.009311272 0.001171652 -0.14945035 0.013611765 0.011593229 -0.0009364757 0.010147283
-0.111872256 0.010377252 0.008870126 0.036844514 -0.0025093718 -0.035959672 0.00029677976 0.014406095
00000000: a9c0 793d 3e3b 1b3d 424d 323c 9b6f 183c
00000010: 624c 133b 03f6 263d e897 8f3b 5e38 ac3a
00000020: d698 973c 4e8e 183c 1e92 993a 8309 19be
00000030: e103 5f3c 87f1 3d3c d27d 75ba ca40 263c
00000040: 481d e5bd 5905 2a3c 0154 113c 46ea 163d
00000050: 4674 24bb 734a 13bd 1b99 9b39 8b07 6c3c

model_20/model_14/model_10/dense_26/BiasAdd/ReadVariableOp/resource f4 [5]
0.059174407 0.06668651 0.06596549 0.014653405 -0.058540676
00000000: dd60 723d f092 883d ea18 873d d614 703c
00000010: 59c8 6fbd

model_20/model_14/model_10/dense_25/BiasAdd/ReadVariableOp/resource f4 [24]
0.08207022 0.07787196 0.06347938 0.047393322 0.13765691 0.13533756 0.039654084 0.090505555
0.047570508 0.077930234 0.052005995 0.09029416 0.030777328 0.10244583 0.03134073 0.035378747
0.0658735 0.09218824 0.06431037 0.026832838 0.0922576 0.042507615 0.06874318 0.039258838
00000000: 6e14 a83d 567b 9f3d 7a01 823d 801f 423d
00000010: eff5 0c3e ee95 0a3e 526c 223d fa5a b93d
00000020: 4bd9 423d e399 9f3d 3d04 553d 25ec b83d
00000030: bc20 fc3c 1fcf d13d 235f 003d 4ee9 103d
00000040: b0e8 863d 30cd bc3d 28b5 833d 8ad0 db3c
00000050: 8df1 bc3d 771c 2e3d 39c9 8c3d e0cd 203d

model_20/model_14/model_10/dense_24/BiasAdd/ReadVariableOp/resource f4 [24]
0.01145915 -0.08167494 0.0052369204 0.025390178 0.0149366455 -0.061462868 0.014593778 0.015030588
0.004306454 0.011178936 0.0060055987 0.01237427 0.009170224 -0.07099328 0.028811539 0.036131367
0.0017939113 0.015119028 -0.0009921761 0.010172244 0.0037625614 0.0003650141 0.0070640123 0.012736026
00000000: 29bf 3b3c 3145 a7bd 799a ab3b 10ff cf3c
00000010: d5b8 743c 7dc0 7bbd be1a 6f3c db42 763c
00000020: 281d 8d3b db27 373c 9dca c43b 73bd 4a3c
00000030: b53e 163c ed64 91bd 2d06 ec3c 7cfe 133d
00000040: ad21 eb3a cdb5 773c e80b 82ba 7ca9 263c
00000050: 4e95 763b 5d5f bf39 3b79 e73b c4aa 503c

model_20/model_14/model_10/dense_24/MatMul f4 [24, 10]
-0.14861262 -0.083194844 0.4146715 0.56856227 -0.37223566 -0.5882468 0.13846809 0.36573154
-0.0856275 0.6382268 -0.18447915 0.12139875 -0.36073413 0.29640478 -0.03925296 -0.064263105
-0.06118789 -0.07320424 -0.10908012 -0.08910618 -0.34768817 -0.027782913 0.23008731 -0.54878515
0.23004837 -0.2304731 0.19003403 0.076759994 0.77056104 -0.534684 -0.52275664 0.58467543
-0.30059364 1.173345 0.056738805 -0.46403244 0.04570497 -0.3281816 0.10571623 1.1131048
-0.25555155 -0.41139176 -0.4600141 0.2403281 -0.25598016 -0.33377376 -0.48995683 -0.8851334
-0.6425846 0.20377336 -0.40036574 -0.04616269 0.02793019 0.11741968 -0.26977786 -0.14056355
-0.05987196 0.3302489 0.25162297 -0.11598686 0.11037917 -0.2839573 0.51113313 0.23059076
-0.3073293 0.2907146 -1.1162671 0.08032322 0.6842002 -0.30823022 0.076619014 -0.045812864
-0.520072 -0.010591175 -0.25657985 0.77363753 0.43222132 0.54964226 0.24704239 0.6035546
0.5003803 -0.22866091 -0.016766453 0.033233233 0.080959246 -0.78976905 0.35326317 -0.6000006
0.63366085 -0.50623214 -0.33581045 0.15163238 -0.41062087 0.96639836 -0.37672076 0.5068065
0.5015513 0.7920087 0.24305443 0.8031852 0.30456263 -0.25097036 0.4010484 0.37837997
-0.4912614 -0.4421276 -0.58556634 0.54675245 0.3596767 0.08813056 0.27262634 -0.0068681794
-0.04512648 -0.48678768 -0.12033217 0.00041161958 -0.5256332 0.3162126 0.1655053 -0.22137089
-0.477109 -0.2070514 0.029031988 0.15662265 -0.11586711 -0.13847579 -0.14128067 -0.29278192
-0.82041794 -0.17728394 -0.4239688 0.026024288 -0.06937924 -0.0405966 0.33155248 -0.09958536
-0.28402212 -0.12493755 -0.13968335 0.31002083 0.5538663 -0.08718091 -0.26123318 0.66827077
0.34735656 -0.26337454 -0.13629623 -1.0048635 0.18085182 0.6699969 0.08224519 -0.07146074
0.081124604 0.4542606 0.1929399 0.4317775 -0.35709894 -0.15162627 -0.28704777 -0.15798704
0.46618596 -0.2247539 0.10671164 -0.18103206 -0.06825708 -0.66049045 0.11239079 -0.6356861
0.46115276 -0.31854665 -0.36587778 0.5925375 0.046435177 -0.73379785 0.27164936 -0.13505855
-0.9647047 0.27828804 0.33854613 0.041701265 -0.62728226 -0.38372484 -0.4481646 -0.393995
0.8539421 0.06386643 0.14114232 0.25556538 -0.43816862 0.10884834 -0.30909428 -0.05845211
0.20952246 0.5841217 0.12589094 0.40562102 -0.66553855 -0.568652 0.29310468 1.2485908
-0.4001376 -0.1403363 -0.11027398 -0.33711144 -0.3596942 1.0986633 0.7806373 1.1945692
-0.018190157 0.06355287 -0.2506471 -0.04035543 -0.19119194 -0.58109695 0.43971512 0.6538991
-0.051979028 -0.27408585 -0.36087424 0.31676272 -0.26020506 0.85500205 -0.0006134822 -0.3787788
0.44985723 -0.25854135 -0.8218 0.2505724 0.08985978 0.018925417 -0.63533497 -0.43552992
-0.62833077 0.5174736 0.1855653 -0.2566335 0.08604596 -0.8086424 -0.61234564 0.15458784
00000000: e82d 18be 0f62 aabd d34f d43e 4c8d 113f
00000010: ac95 bebe 5897 16bf 94ca 0d3e 2a41 bb3e
00000020: 795d afbd d562 233f 1ae8 3cbe e89f f83d
00000030: 25b2 b8be 5ec2 973e b6c7 20bd 609c 83bd
00000040: 27a0 7abd 1bec 95bd 6665 dfbd 4d7d b6bd
00000050: 2f04 b2be fe98 e3bc 029c 6b3e 2f7d 0cbf
00000060: cd91 6b3e 2401 6cbe 4898 423e 5834 9d3d
00000070: 7d43 453f 0de1 08bf 61d3 05bf 4aad 153f
00000080: 69e7 99be 2b30 963f f366 683d a995 edbe
00000090: 2235 3b3d 6b07 a8be c081 d83d 387a 8e3f
000000a0: a7d7 82be f1a1 d2be f886 ebbe 9218 763e
000000b0: d50f 83be 65e4 aabe 9fdb fabe 1a98 62bf
000000c0: 6d80 24bf f7a9 503e bdfc ccbe 1715 3dbd
000000d0: dbcd e43c bb79 f03d 5320 8abe e4ef 0fbe
000000e0: 4d3c 75bd 6216 a93e bad4 803e 858a edbd
000000f0: 790e e23d da62 91be 9fd9 023f fc1f 6c3e
00000100: 445a 9dbe 8bd8 943e d7e1 8ebf 8080 a43d
00000110: bf27 2f3f 5ad0 9dbe 6eea 9c3d 45a6 3bbd
00000120: 7023 05bf 9c86 2dbc 6f5e 83be 1c0d 463f
00000130: 1d4c dd3e 5bb5 0c3f aef8 7c3e 8e82 1a3f
00000140: ec18 003f 1626 6abe cd59 89bc 921f 083d
00000150: f6cd a53d 4e2e 4abf e9de b43e a499 19bf
00000160: 9937 223f 6e98 01bf 59ef abbe 8545 1b3e
00000170: e63c d2be e265 773f 8be1 c0be 12be 013f
00000180: aa65 003f 15c1 4a3f 43e3 783e 8c9d 4d3f
00000190: a2ef 9b3e 307f 80be 3756 cd3e 05bb c13e
000001a0: 9d86 fbbe 8c5e e2be ade7 15bf f8f7 0b3f
000001b0: 8b27 b83e cc7d b43d ae95 8b3e 770e e1bb
000001c0: 8bd6 38bd 3c3c f9be b670 f6bd a5ce d739
000001d0: e68f 06bf 9ee6 a13e 397a 293e 0daf 62be
000001e0: a147 f4be 4805 54be 7ed4 ed3c b061 203e
000001f0: bc4b edbd 99cc 0dbe e1ab 10be 83e7 95be
00000200: e906 52bf ec89 35be 7012 d9be e330 d53c
00000210: b416 8ebd 9f48 26bd 3fc1 a93e 69f3 cbbd
00000220: 596b 91be 42df ffbd 2709 0fbe 0dbb 9e3e
00000230: 2fca 0d3f e88b b2bd 5bc0 85be cb13 2b3f
00000240: b8d8 b13e 07d9 86be 3d91 0bbe 5e9f 80bf
00000250: 3831 393e eb84 2b3f 2b70 a83d 025a 92bd
00000260: a824 a63d d894 e83e 0a92 453e f111 dd3e
00000270: acd5 b6be eb43 1bbe edf7 92be 5bc7 21be
00000280: edaf ee3e e325 66be a28b da3d 7860 39be
00000290: 5eca 8bbd e715 29bf 242d e63d 53bc 22bf
000002a0: 371c ec3e 8c18 a3be 5554 bbbe 8ab0 173f
000002b0: d032 3e3d 2dda 3bbf a015 8b3e ca4c 0abe
000002c0: e3f6 76bf c57b 8e3e eb55 ad3e f2ce 2a3d
000002d0: 9295 20bf 9577 c4be d575 e5be b6b9 c9be
000002e0: f39b 5a3f 67cc 823d 9d87 103e 77d9 823e
000002f0: a357 e0be e1eb de3d 9b41 9ebe 7b6b 6fbd
00000300: 0e8d 563e 0089 153f 8ee9 003e 8fad cf3e
00000310: bc60 2abf 2d93 11bf d111 963e d3d1 9f3f
00000320: d6de ccbe 52b4 0fbe 53d7 e1bd df99 acbe
00000330: d729 b8be 00a1 8c3f d9d7 473f a5e7 983f
00000340: 8603 95bc 0228 823d d154 80be bc4b 25bd
00000350: d2c7 43be c5c2 14bf 5722 e13e ee65 273f
00000360: f6e7 54bd fb54 8cbe 82c4 b8be b92e a23e
00000370: 9939 85be 6ae1 5a3f 18d2 20ba 4bef c1be
00000380: b053 e63e 885f 84be 7c61 52bf 074b 803e
00000390: 6808 b83d 7a09 9b3c 50a5 22bf c7fd debe
000003a0: 49da 20bf 2679 043f d404 3e3e 7765 83be
000003b0: dd38 b03d 3003 4fbf afc2 1cbf 464c 1e3e

model_20/model_14/model_10/dense_25/MatMul f4 [24, 24]
0.014130957 0.011803603 -0.42487586 -1.7351844 -0.982409 0.20838884 -0.78306293 0.07905248
-1.2083942 0.043968756 -0.10244659 0.17821479 -0.1581894 0.01985475 -0.9546683 -0.17830549
-1.5000459 0.0074805347 0.22098711 -0.6044455 -0.059688732 0.1627756 -0.10105361 -1.2880702
0.03637977 -0.1578872 -0.6443134 -0.4190945 0.019533135 0.26936084 0.100654736 -0.42075
-0.98082685 -0.16658485 0.20823708 0.12211935 0.01167022 0.1685376 0.26543814 0.22883724
-1.0724558 -0.007922031 0.28588054 0.035986558 -0.05326209 0.110911205 0.097771145 -0.2962998
-0.2513891 -0.041459672 0.105211906 0.11180348 0.35058144 -0.012338416 -0.3229734 -1.7122947
-0.10937137 -1.4347466 -0.13830191 -0.21741743 -0.102460966 -0.28820828 0.0014672047 0.0051655537
-0.10809891 -0.5830895 0.6264309 0.49395955 -1.3831775 0.2893037 0.11254734 0.25210583
-0.017339228 -0.09530465 -0.021481514 0.01072725 0.5266464 -0.09790319 -0.5276423 -0.8239162
-0.069857694 -1.0991676 0.061753448 -0.2083552 0.0981408 0.16161825 0.15433107 0.10911828
0.10254502 -1.3439769 -0.030805523 -0.21900703 -1.3265438 0.22202949 -0.98779947 0.49395442
-0.033585556 0.36695358 -0.8394832 -1.8876393 0.08280999 -0.24282147 0.2767836 0.08559501
-2.2593324 -0.25860035 -0.030835107 -0.00037791044 0.40461254 0.050060224 -0.6247506 0.009009652
-2.3268096 -0.27392784 0.08194912 -0.22010098 -0.06934727 0.07163743 -0.20837869 -0.13313107
-0.23721461 -0.25466496 -0.088309385 -1.1832173 -0.35420567 -0.26668155 -0.549681 0.12931304
-0.09127427 0.18162811 -0.22637838 0.4997861 0.08061405 0.2682241 -0.7365411 -0.44523022
-0.124004684 -0.43636286 -0.42873737 -1.66872 0.0044348943 0.08338461 -0.023810636 -0.87969506
-1.1717453 -0.18856367 -0.035875503 -0.10683851 0.027102461 -0.20117275 -0.52980655 -1.6058809
0.018670427 -1.0781528 -1.061044 -0.41716513 -0.0005023482 0.11604493 -0.015674185 -0.099670775
0.015746936 -0.26050252 0.27433622 0.4733763 -1.2863166 0.08681772 0.2520917 0.44387236
-1.2500905 -0.23520096 0.029876992 -0.8592855 0.5796922 -0.2489655 -0.25264814 -0.22286034
-0.082350165 -0.838034 -0.66270393 0.7927504 -0.23362176 -0.059785753 -0.07169654 -0.030965194
-0.017092438 -0.097422235 0.1687554 -0.5050028 -0.10114915 -0.59718776 -0.5327936 0.8029559
0.03612964 -0.07958098 0.056009255 -0.22078611 0.41885948 0.17649028 -0.3579647 -1.2859069
0.0031639058 -1.4381472 -0.1719958 -0.21831425 0.32339057 0.0748207 -0.10123826 -0.1669943
-0.08786339 -1.3834878 0.51335996 0.19071154 -1.5507423 -0.10068271 -0.8825411 0.02822605
0.18057683 -0.13567649 0.010959209 0.62834877 -0.30885324 0.28914183 -0.12670258 -1.0717112
0.009945978 -1.1610671 -0.1692836 -0.9649948 -0.23390055 -0.068068095 0.12626834 0.014162428
-0.031687107 -0.8719397 0.077848926 0.5501401 -1.3488088 0.47998422 -0.11591944 0.50008446
-0.056286518 0.12828413 -0.5439834 -0.1568635 -0.41569138 -0.094466135 -0.9456919 0.12020884
-1.2246304 0.017959103 0.19961978 0.17007662 -0.18436329 -0.1386615 0.16948284 0.30810827
00000000: 8885 673c e663 413c 5489 d9be 861a debf
00000010: 287f 7bbf e263 553e d076 48bf 44e6 a13d
00000020: a9ac 9abf 9518 343d 85cf d1bd f07d 363e
00000030: 67fc 21be 6ea6 a23c 2465 74bf b795 36be
00000040: 8101 c0bf 461f f53b 724a 623e f1bc 1abf
00000050: 2c7c 74bd a6ae 263e 32f5 cebd 7cdf a4bf
00000060: f402 153d 2fad 21be b9f1 24bf 8e93 d6be
00000070: f403 a03c aae9 893e 1224 ce3d 8b6c d7be
00000080: 7817 7bbf 3895 2abe 1a3c 553e b619 fa3d
00000090: 7334 3f3c 1f95 2c3e 82e7 873e 4f54 6a3e
000000a0: 3b46 89bf 68cb 01bc ef5e 923e a466 133d
000000b0: 5929 5abd 6a25 e33d 3d3c c83d 9bb4 97be
000000c0: 12b6 80be 9ed1 29bd 5779 d73d 39f9 e43d
000000d0: 697f b33e 1127 4abc c55c a5be 792c dbbf
000000e0: 19fe dfbd c7a5 b7bf 049f 0dbe ada2 5ebe
000000f0: 0ed7 d1bd 0990 93be 384f c03a ce43 a93b
00000100: f662 ddbd 5a45 15bf c75d 203f 44e8 fc3e
00000110: f60b b1bf 9d1f 943e 387f e63d 0414 813e
00000120: ff0a 8ebc 162f c3bd 00fa afbc 59c1 2f3c
00000130: 4cd2 063f 7881 c8bd 9113 07bf 2cec 52bf
00000140: 8d11 8fbd 86b1 8cbf 2ff1 7c3d 115b 55be
00000150: 0bfe c83d 417f 253e f708 1e3e 6879 df3d
00000160: 2003 d23d 6f07 acbf dd5b fcbc 6143 60be
00000170: 30cc a9bf b35b 633e 6de0 7cbf 98e7 fc3e
00000180: 0291 09bd 57e1 bb3e 5fe8 56bf 2a9e f1bf
00000190: 4998 a93d 31a6 78be 94b6 8d3e 704c af3d
000001a0: e798 10c0 4467 84be e899 fcbc 4822 c6b9
000001b0: 6029 cf3e f30b 4d3d a8ef 1fbf 389d 133c
000001c0: 73ea 14c0 4540 8cbe f1d4 a73d 2762 61be
000001d0: f105 8ebd a5b6 923d 3961 55be 8353 08be
000001e0: 63e8 72be 7263 82be 8ddb b4bd aa73 97bf
000001f0: 725a b5be 7c8a 88be e5b7 0cbf a36a 043e
00000200: 01ee babd b8fc 393e bccf 67be f7e3 ff3e
00000210: fb18 a53d ab54 893e f58d 3cbf 37f5 e3be
00000220: 2bf6 fdbd f46a dfbe 7783 dbbe 9e98 d5bf
00000230: 9752 913b 8dc5 aa3d 860e c3bc b233 61bf
00000240: c0fb 95bf d616 41be 31f2 12bd 26ce dabd
00000250: fb05 de3c 3b00 4ebe 67a1 07bf 818d cdbf
00000260: b9f2 983c e900 8abf 4ad0 87bf ab96 d5be
00000270: 04b0 03ba f7a8 ed3d 2667 80bc 3120 ccbd
00000280: b8ff 803c 9660 85be cc75 8c3e 615e f23e
00000290: 06a6 a4bf 7dcd b13d 2a12 813e 3d43 e33e
000002a0: f702 a0bf 85d8 70be 98c0 f43c 22fa 5bbf
000002b0: b566 143f d0f0 7ebe 195b 81be 8035 64be
000002c0: 34a7 a8bd 6589 56bf f7a6 29bf b1f1 4a3f
000002d0: 8b3a 6fbe e8e1 74bd a3d5 92bd b8aa fdbc
000002e0: 7105 8cbc 4f85 c7bd 37ce 2c3e dd47 01bf
000002f0: 4927 cfbd 4ce1 18bf 2965 08bf 858e 4d3f
00000300: acfc 133d 5afb a2bd f669 653d c115 62be
00000310: c074 d63e deb9 343e 2647 b7be 9998 a4bf
00000320: 8859 4f3b 3515 b8bf ab1f 30be c58d 5fbe
00000330: 7393 a53e 983b 993d 0156 cfbd 8e00 2bbe
00000340: b9f1 b3bd 2116 b1bf 8f6b 033f e349 433e
00000350: b97e c6bf bd32 cebd 37ee 61bf 513a e73c
00000360: 22e9 383e c7ee 0abe 418e 333c 77db 203f
00000370: 0322 9ebe 660a 943e 52be 01be d52d 89bf
00000380: 75f4 223c d99d 94bf ae58 2dbe e609 77bf
00000390: a083 6fbe 4967 8bbd 7d4c 013e 8709 683c
000003a0: 57ca 01bd 7137 5fbf 426f 9f3d fbd5 0c3f
000003b0: c4a5 acbf 7ec0 f53e 2c67 edbd 8905 003f
000003c0: b18c 66bd ea5c 033e 7f42 0bbf d3a0 20be
000003d0: 80d5 d4be 7677 c1bd dd18 72bf 0d30 f63d
000003e0: b0c0 9cbf f81e 933c 2169 4c3e 9128 2e3e
000003f0: bbc9 3cbe 48fd 0dbe e98c 2d3e 5ec0 9d3e

model_20/model_14/model_10/dense_26/MatMul f4 [5, 24]
1.1365011 -0.2361082 -0.12701935 -0.30840942 -0.77879757 0.43810898 -0.5769952 -0.33365577
-0.7277441 -0.42624915 0.7222827 0.49808595 -0.102430694 0.2975372 -0.6156819 -0.90995884
-0.37886378 0.2545866 1.232632 0.08460039 -0.21890824 0.11029136 0.7662204 -0.23010874
0.34234315 -0.44250748 -0.6087308 -0.41780922 0.22999254 0.33960125 -0.9315103 0.4452087
-0.8370935 -0.54600054 -0.30290276 0.4728462 -0.4016768 1.0304129 -0.47124457 -0.89859915
0.083743066 -0.057053156 0.96373236 -0.6708899 -0.2728054 -0.11116293 0.5350576 -0.5559852
1.0153253 0.24105719 -0.23994377 -0.6744783 0.06119777 0.16905358 -0.5462543 -0.008709284
-0.5830556 -0.35566795 0.098476745 0.57587975 -0.69023305 0.81150556 -0.45319697 -1.1821035
-0.10688104 -0.2325832 0.63467395 -0.5137155 -0.036713447 -0.42143524 -0.038526338 -0.65559775
0.5317972 0.65332943 0.56881404 -0.5778262 1.4126658 0.48596013 0.2701712 0.17509036
0.11707247 -0.42461655 0.20369998 -0.28747296 0.23619455 0.22271217 0.18198594 1.5105555
-0.12332327 -1.781629 0.7643273 0.101139136 0.36260194 -0.45859697 -0.5587948 0.09398433
-0.13691272 -0.4450297 -0.022600057 0.22455332 -0.14124748 0.40319785 0.010494964 0.87106305
1.0983906 -0.66243297 -0.39885467 -0.03934866 0.6826131 0.33806992 0.94639677 1.1688752
0.7992035 0.62379515 -0.8498027 0.60850334 -0.6271762 0.23195739 -0.04467754 0.3923917
00000000: de78 913f 59c6 71be 5c11 02be d7e7 9dbe
00000010: 475f 47bf d24f e03e f5b5 13bf eed4 aabe
00000020: 704d 3abf 543d dabe 85e7 383f 1f05 ff3e
00000030: 2fc7 d1bd cc56 983e 549d 1dbf 10f3 68bf
00000040: 6ffa c1be 2d59 823e e3c6 9d3f f842 ad3d
00000050: 7b29 60be 70e0 e13d 0527 443f a0a1 6bbe
00000060: 9a47 af3e 5790 e2be c8d5 1bbf 17eb d5be
00000070: 2a83 6b3e 37e0 ad3e 7677 6ebf 65f2 e33e
00000080: c24b 56bf b1c6 0bbf 1216 9bbe e618 f23e
00000090: 95a8 cdbe 92e4 833f f846 f1be 980a 66bf
000000a0: 7c81 ab3d 92b0 69bd 2ab7 763f 71bf 2bbf
000000b0: 26ad 8bbe 64a9 e3bd 89f9 083f 0c55 0ebf
000000c0: 2ef6 813f b2d7 763e d2b3 75be 9caa 2cbf
000000d0: 83aa 7a3d 621c 2d3e 52d7 0bbf 62b1 0ebc
000000e0: 2243 15bf 1c1a b6be 2dae c93d db6c 133f
000000f0: 1db3 30bf d4be 4f3f 6f09 e8be 2b4f 97bf
00000100: 72e4 dabd 4a2a 6ebe fe79 223f dc82 03bf
00000110: d760 16bd 5cc6 d7be cbcd 1dbd 41d5 27bf
00000120: dc23 083f 9940 273f cc9d 113f 6bec 13bf
00000130: 3cd2 b43f c4cf f83e e153 8a3e e34a 333e
00000140: b1c3 ef3d 5767 d9be ba96 503e a82f 93be
00000150: fcdc 713e a90e 643e 865a 3a3e e259 c13f
00000160: e990 fcbd 6b0c e4bf f4aa 433f 0922 cf3d
00000170: f6a6 b93e 39cd eabe 2d0d 0fbf db7a c03d
00000180: d932 0cbe efda e3be c123 b9bc 4ef1 653e
00000190: 2ea3 10be f36f ce3e 12f3 2b3c fdfd 5e3f
000001a0: 1098 8c3f 3595 29bf ae36 ccbe 0f2c 21bd
000001b0: bbbf 2e3f 8017 ad3e 0f47 723f b49d 953f
000001c0: 9a98 4c3f 0ab1 1f3f ab8c 59bf e0c6 1b3f
000001d0: 9f8e 20bf 3d86 6d3e ccff 36bd 91e7 c83e

model_20/model_14/model_11/dense_27/MatMul f4 [24, 10]
-0.50739676 0.17567317 -0.91008455 -0.09689655 -0.22431754 0.62278664 0.09692748 0.35249949
-0.093295485 0.11204448 -0.1523895 0.12733255 0.5178367 0.7198025 -0.11920959 0.46857953
0.25656897 -0.6063077 0.7538357 -0.12560195 -0.2581194 -0.22654563 0.7407914 0.6832049
-0.5382451 -0.36230907 -0.4338093 -0.5460806 -0.43073437 -0.0318234 -0.4210902 -0.5117404
-0.032269657 0.38542014 -0.23559108 0.30221647 -0.22632766 -0.8877575 -1.1046015 -0.1928384
0.3694836 0.09887081 0.17879233 0.12108059 0.49408245 0.21710843 -0.44046947 0.21490666
0.88681763 0.28198594 -0.8987184 0.3106159 -0.36486125 0.25509876 -0.05840861 -0.4693027
-0.5701146 -0.52914983 -0.76256 -0.17850846 -0.3578373 0.57491475 0.30355665 -0.7869088
-0.2735494 0.49424434 0.15688598 0.18908067 0.061760932 -0.36313465 -0.29378036 0.14809148
0.41344196 0.5028213 0.4619864 -0.8089215 0.041076783 0.18624163 0.43563613 0.7669326
-0.32142228 -0.14573847 -1.2667191 -0.3834691 0.24555135 -0.087810926 0.32136816 0.28991327
-0.033569966 0.014296374 -0.30876163 -0.33716527 0.24268419 -0.11142338 -0.3062847 0.55302364
-0.5759853 -1.2583133 -0.4672348 0.35853392 0.20068268 -0.0199869 0.22827365 0.33636647
-0.015587354 -0.36023256 -0.48883355 0.75476897 0.15427458 0.073284045 -0.22392042 -0.27890992
-0.31544885 -0.46289852 -0.6880621 -0.48135445 0.38578472 -0.11176706 0.6134354 -0.35907093
-0.28950855 0.7671958 0.5275611 -0.8202882 -0.5506995 0.34415993 -0.4659089 -0.30783197
0.07547413 0.07704094 -0.3260253 0.076635696 -0.6509488 -0.39673802 -0.46058983 0.38413426
0.28423768 -0.042442814 -0.2435864 0.25578904 0.22495791 -0.16620359 -0.12425448 -0.45903453
0.3087996 0.07199559 -0.24299635 0.5274365 0.39233798 0.19178079 -0.41749394 0.5459966
-0.9615401 -0.08667998 -0.46540087 0.14941472 0.36191434 0.50024813 -0.3073711 0.049374998
0.12693529 0.29586765 -0.39334932 -0.03709545 -0.39128816 -0.86515325 0.36992556 -0.18605343
0.25760394 -0.4936169 -0.93593967 -0.2701195 -0.6876733 0.14856921 0.51796037 0.10991845
0.41302955 -1.5408416 -0.03264812 0.67742956 -0.06259032 0.9144038 -0.19145665 -0.84778225
-0.06653877 0.48461235 0.07367796 -0.14791058 0.046067607 -0.06511141 -0.5306299 0.95242095
-0.74964243 -0.035382234 -0.019591514 -0.4924812 -0.042514075 -0.49857265 -0.2709973 -0.102341905
0.12913756 -0.114406295 -0.51834285 -0.20388877 0.26756182 0.5672301 -0.044495337 -0.8811912
0.7546324 -0.7289097 -0.27270183 -0.45441094 0.0069857063 -0.21941236 0.05218136 -0.13371547
0.58208567 0.14924183 -0.6837004 -0.45435357 -0.27555934 0.69162774 -0.06628848 -0.43758708
-0.6515147 0.39819336 -0.33078924 0.23600449 0.112002544 -0.180243 -0.071549706 -0.11791847
0.6365796 0.5914106 0.19876632 0.75483614 0.1024349 -0.4755883 0.101249725 0.3258186
00000000: c1e4 01bf abe3 333e 4dfb 68bf b371 c6bd
00000010: 7fb3 65be f26e 1f3f ea81 c63d d07a b43e
00000020: b411 bfbd 9477 e53d fe0b 1cbe 7763 023e
00000030: f290 043f fa44 383f 2824 f4bd a8e9 ef3e
00000040: 025d 833e fb36 1bbf 60fb 403f cc9d 00be
00000050: 3a28 84be 94fb 67be 81a4 3d3f 84e6 2e3f
00000060: 6eca 09bf 9380 b9be 411c debe f0cb 0bbf
00000070: 3789 dcbe 4159 02bd 2299 d7be 6b01 03bf
00000080: 302d 04bd ca55 c53e ca3e 71be 1ebc 9a3e
00000090: 70c2 67be 1344 63bf 9563 8dbf 6e77 45be
000000a0: f42c bd3e c77c ca3d 5615 373e 1af9 f73d
000000b0: 60f8 fc3e ac51 5e3e 3785 e1be 7e10 5c3e
000000c0: 7b06 633f 7660 903e 6912 66bf 0c09 9f3e
000000d0: 18cf babe 4e9c 823e de3d 6fbd 7248 f0be
000000e0: 08f3 11bf 5d76 07bf 2237 43bf ecca 36be
000000f0: 7336 b7be 9d2d 133f c76b 9b3e db72 49bf
00000100: ab0e 8cbe 980d fd3e b8a6 203e 5d9e 413e
00000110: 08f9 7c3d c9ec b9be 616a 96be 4ba5 173e
00000120: aaae d33e e6b8 003f 7b89 ec3e 7b15 4fbf
00000130: 2140 283d 20b6 3e3e b30b df3e b255 443f
00000140: 7691 a4be 773c 15be da23 a2bf 1056 c4be
00000150: d071 7b3e 37d6 b3bd 5e8a a43e 836f 943e
00000160: a980 09bd 573b 6a3c 0116 9ebe eda0 acbe
00000170: 3482 783e f131 e4bd 59d1 9cbe f592 0d3f
00000180: c673 13bf 6910 a1bf 6639 efbe c291 b73e
00000190: c37f 4d3e 91bb a3bc 91c0 693e 3a38 ac3e
000001a0: 1a62 7fbc 6770 b8be 6448 fabe 8a38 413f
000001b0: 28fa 1d3e f215 963d 654b 65be 48cd 8ebe
000001c0: 8382 a1be 0901 edbe d624 30bf 1774 f6be
000001d0: 9385 c53e 21e6 e4bd 1a0a 1d3f 25d8 b7be
000001e0: 773a 94be f266 443f 3f0e 073f 68fe 51bf
000001f0: a4fa 0cbf bb35 b03e 9d8b eebe 279c 9dbe
00000200: 2e92 9a3d a4c7 9d3d caec a6be 2df3 9c3d
00000210: 95a4 26bf 3f21 cbbe 6ed2 ebbe 3fad c43e
00000220: 9a87 913e 84d8 2dbd b76e 79be c8f6 823e
00000230: 5e5b 663e 4631 2abe 2279 febd 9306 ebbe
00000240: fb1a 9e3e 6d72 933d 09d4 78be 1406 073f
00000250: 86e0 c83e 2f62 443e c4c1 d5be 6fc6 0b3f
00000260: 7e27 76bf 4685 b1bd 0649 eebe 2c00 193e
00000270: d64c b93e 4310 003f bf5f 9dbe 703d 4a3d
00000280: 53fb 013e f77b 973e 1565 c9be 66f1 17bd
00000290: ec56 c8be af7a 5dbf e266 bd3e ca84 3ebe
000002a0: aae4 833e 5bbb fcbe be99 6fbf 1a4d 8abe
000002b0: 5b0b 30bf 8722 183e 0d99 043f ed1c e13d
000002c0: 9c78 d33e 4c3a c5bf 09ba 05bd 066c 2d3f
000002d0: 5b2f 80bd 5e16 6a3f 360d 44be 4208 59bf
000002e0: 7b45 88bd 1c1f f83e 78e4 963d df75 17be
000002f0: 63b1 3c3d 2259 85bd 5cd7 07bf dcd1 733f
00000300: 91e8 3fbf f6ec 10bd 627e a0bc 7f26 fcbe
00000310: 3d23 2ebd ea44 ffbe 28c0 8abe a298 d1bd
00000320: a33c 043e d94d eabd 1eb2 04bf 38c8 50be
00000330: ddfd 883e fe35 113f be40 36bd bf95 61bf
00000340: 972f 413f d399 3abf 939f 8bbe 8da8 e8be
00000350: 5ae8 e43b a2ad 60be 1fbc 553d b5ec 08be
00000360: 9103 153f dad2 183e fd06 2fbf 08a1 e8be
00000370: 1d16 8dbe 840e 313f 41c2 87bd 6a0b e0be
00000380: abc9 26bf 00e0 cb3e 355d a9be 29ab 713e
00000390: 9761 e53d 9f91 38be a788 92bd 3d7f f1bd
000003a0: e1f6 223f af66 173f 6689 4b3e f13c 413f
000003b0: 64c9 d13d 4f80 f3be 045c cf3d b2d1 a63e

model_20/model_14/model_11/dense_28/MatMul f4 [24, 24]
0.49424568 -0.35597655 -0.075717725 0.7007311 -0.4497362 0.55600774 -0.16023073 0.49220017
0.42429087 -0.17894796 0.18008518 0.12420796 -0.574272 0.45797858 -0.033034984 0.44567868
-0.36229503 -0.28651127 -0.029504232 0.020107929 -0.28738904 -0.118804924 -0.19244017 0.03221913
0.37747315 -0.17580514 -0.10206325 0.071310796 -1.7616518 0.27205795 -0.627908 -0.38477632
0.23022611 -0.10390628 -0.1603239 -0.116928175 0.45905682 -0.64653313 -0.50593954 0.053193923
-0.07858614 1.2916639 0.3369525 0.22648568 -0.19976507 -0.089466974 -0.003264192 0.1076577
-0.72763026 -0.0032362468 0.18096387 0.20680606 -1.0679526 -0.1289536 0.06558997 -0.7684941
-0.12148795 0.1617803 -1.1063644 0.31513628 0.29557082 -0.9864309 -0.61538 -0.9463744
-0.27787262 1.0488211 -0.10213778 0.36017781 -0.027938697 0.02662217 -0.44664326 -0.111198574
0.15023279 -0.99987876 -0.14738259 -0.65915155 0.04277552 0.62464225 0.26453692 -0.3303688
0.43757984 -0.52587146 0.04864171 -0.45472923 0.3261151 0.16825317 -0.17945352 0.3642141
-0.49845284 0.46835575 -0.2269289 0.5189326 -0.92641973 -0.20965065 -0.14075573 -0.97755355
0.43118447 -0.8164656 -0.18217775 -0.44305137 0.013247322 0.32640904 -0.12113263 -0.20575336
0.04317428 -0.748417 0.04977739 -0.719797 -0.34660336 -0.04236232 -0.032975327 -0.11156015
-0.8303212 0.32477066 0.30003592 0.68258363 -1.0043641 -0.3901745 0.4533956 -1.1580786
0.030031545 -1.0161748 -0.6321818 -1.2883509 -0.02458003 0.63037634 0.29809836 -0.38380194
0.2924562 -0.6406143 -0.49068654 -0.03712889 0.21611063 -0.065264285 -0.052945204 0.13562514
-0.22779156 -0.5571757 0.17162265 0.15152483 -0.26992902 -0.69191456 -0.3564063 -2.6548803
0.19440274 -0.5328934 0.4059673 0.0009117671 -0.08282162 0.027371464 0.123801276 -0.13348424
0.17577448 -0.56206596 -0.20399562 -0.5308524 -0.006587958 0.40913108 0.32680327 0.12718013
-0.11795791 0.48617092 -0.037202395 0.19009542 -0.8637069 -0.05480147 -0.018508418 -0.67602634
-1.4614768 -0.19157812 0.09147804 0.10537776 -0.21444823 0.76012874 -0.48508886 -1.9496844
-1.4358634 0.26628768 0.79562014 -0.080554195 -1.0575786 -2.1436393 -0.20048583 -0.5636345
-0.7317992 0.6899328 -0.39500102 -0.16391951 0.021284672 0.27124608 -1.4984739 -0.111056864
-0.59509903 -0.00829631 0.13723783 0.073726505 -0.24680129 -0.10524742 -0.15695906 -0.56482655
0.055632267 0.2798561 -1.2703803 -0.32685953 0.004590097 -0.76695645 -0.5358322 -1.073615
0.2491618 1.0843657 0.099045776 0.30486426 -0.124670446 -0.19418511 -0.29211265 0.06491514
-0.03731884 -0.008184545 -0.2408554 0.068900965 -0.021891326 -0.31047174 0.053363457 -0.62811035
-0.27171847 0.20673934 -0.8672728 0.080289476 -0.11886218 -0.730764 -0.96695065 -1.4046407
0.032483455 0.42742074 0.11438221 -0.1091788 0.16114241 0.014129678 -1.2190266 0.18342865
0.12280952 0.07658097 -0.4798104 -0.08640205 0.2044513 -0.28291252 -0.11283034 -0.4145143
-0.88386947 -0.28771123 -0.13601643 0.013624345 -0.51367545 -1.159295 0.04114518 -2.205711
00000000: c50d fd3e 8f42 b6be e511 9bbd 1d63 333f
00000010: d343 e6be 8656 0e3f 8613 24be a901 fc3e
00000020: a73c d93e 223e 37be 4068 383e be60 fe3d
00000030: 7d03 13bf 2b7c ea3e b14f 07bd ff2f e43e
00000040: bc7e b9be 9bb1 92be dcb2 f1bc 62b9 a43c
00000050: a824 93be ff4f f3bd 090f 45be 35f8 033d
00000060: 2944 c13e 4306 34be 8a06 d1bd 650b 923d
00000070: ce7d e1bf 2e4b 8b3e 94be 20bf 6701 c5be
00000080: 65c0 6b3e d1cc d4bd f32b 24be 0a78 efbd
00000090: 7f09 eb3e 3283 25bf 4185 01bf dfe1 593d
000000a0: c5f1 a0bd 3e55 a53f 0a85 ac3e ddeb 673e
000000b0: 378f 4cbe 763a b7bd 0eec 55bb a47b dc3d
000000c0: fa45 3abf 3617 54bb 984e 393e f8c4 533e
000000d0: acb2 88bf 6a0c 04be 0954 863d 08bc 44bf
000000e0: adce f8bd bca9 253e 599d 8dbf 8b59 a13e
000000f0: 0f55 973e bc86 7cbf 8b89 1dbf 9845 72bf
00000100: 5245 8ebe c53f 863f 9d2d d1bd 3a69 b83e
00000110: b2df e4bc bd16 da3c 6dae e4be 14bc e3bd
00000120: a0d6 193e 0ef8 7fbf 76eb 16be 28be 28bf
00000130: 6235 2f3d 8ee8 1f3f 6271 873e 1926 a9be
00000140: 770a e03e 839f 06bf 883c 473d 45d2 e8be
00000150: 8ff8 a63e 8f4a 2c3e aac2 37be 457a ba3e
00000160: 3635 ffbe 53cc ef3e 0d60 68be c4d8 043f
00000170: d829 6dbf a9ae 56be 4522 10be f340 7abf
00000180: 36c4 dc3e e403 51bf ce8c 3abe a1d7 e2be
00000190: 4c0b 593c 161f a73e 6214 f8bd 02b1 52be
000001a0: 84d7 303d 4298 3fbf 60e3 4b3d 9e44 38bf
000001b0: ff75 b1be 1d84 2dbd 2311 07bd a679 e4bd
000001c0: ee8f 54bf 5748 a63e 4f9e 993e cdbd 2e3f
000001d0: 018f 80bf f4c4 c7be 7823 e83e eb3b 94bf
000001e0: b704 f63c 0412 82bf abd6 21bf afe8 a4bf
000001f0: 0f5c c9bc 5860 213f 59a0 983e b081 c4be
00000200: d2bc 953e 4cff 23bf 443b fbbe 7714 18bd
00000210: 1b4c 5d3e 48a9 85bd 12dd 58bd 51e1 0a3e
00000220: 3142 69be 11a3 0ebf d9bd 2f3e 5329 1b3e
00000230: 2334 8abe 5021 31bf e37a b6be 8fe9 29c0
00000240: 8311 473e b46b 08bf f2da cf3e a803 6f3a
00000250: 629e a9bd 1f3a e03c 868b fd3d 18b0 08be
00000260: 3afe 333e 8ee3 0fbf 3ae4 50be f1e5 07bf
00000270: ccdf d7bb a179 d13e c252 a73e 823b 023e
00000280: eb93 f1bd 65eb f83e 8a61 18bd 60a8 423e
00000290: e51b 5dbf 8277 60bd f79e 97bc 1010 2dbf
000002a0: ac11 bbbf 0e2d 44be d758 bb3d 4cd0 d73d
000002b0: 5198 5bbe cc97 423f 915d f8be 428f f9bf
000002c0: 5fca b7bf dc56 883e c3ad 4b3f 99f9 a4bd
000002d0: bc5e 87bf 6331 09c0 284c 4dbe 5a4a 10bf
000002e0: 3157 3bbf 709f 303f 933d cabe 84da 27be
000002f0: 315d ae3c c4e0 8a3e fecd bfbf c871 e3bd
00000300: 6958 18bf 3fed 07bc 1388 0c3e ecfd 963d
00000310: 7ab9 7cbe f68b d7bd e0b9 20be 7998 10bf
00000320: a9de 633d 4c49 8f3e d29b a2bf 225a a7be
00000330: 8668 963b 4257 44bf 4d2c 09bf 376c 89bf
00000340: 4524 7f3e 7fcc 8a3f 83d8 ca3d 2b17 9c3e
00000350: 3853 ffbd 76d8 46be ca8f 95be 3bf2 843d
00000360: a4db 18bd 7818 06bc cca2 76be f31b 8d3d
00000370: 7055 b3bc 27f6 9ebe a493 5a3d d7cb 20bf
00000380: af1e 8bbe 7ab3 533e 9705 5ebf cf6e a43d
00000390: 046e f3bd 5913 3bbf 148a 77bf 44cb b3bf
000003a0: 5f0d 053d e4d6 da3e 3841 ea3d 2299 dfbd
000003b0: 8402 253e 2a80 673c 1009 9cbf b8d4 3b3e
000003c0: 8f83 fb3d 7cd6 9c3d b5a9 f5be 8ff3 b0bd
000003d0: ae5b 513e e9d9 90be 9813 e7bd 383b d4be
000003e0: 4545 62bf e34e 93be e447 0bbe a538 5f3c
000003f0: 3c80 03bf c763 94bf d987 283d 5e2a 0dc0
